h7/results/model.pth (torch, 449884 bytes, 10 tensors)

conv1.weight f4 [10, 1, 5, 5]
0	0xbe11ab0b	-0.14225404
1	0x3e19bc10	0.15013146
2	0x3c1b3f8b	0.009475599
3	0x3e3d01b1	0.18457676
4	0x3df0fc00	0.11766815
5	0x3d82538d	0.06363592
6	0x3e039187	0.12848483
7	0x3da9db5e	0.08293794
8	0x3e1ecade	0.15507075
9	0x3c03a51f	0.008034973
10	0x3cace103	0.021103388
11	0xbc0fb711	-0.008771674
12	0x3c7f5f7d	0.015586731
13	0xbcb04364	-0.02151651
14	0x3e448e7e	0.19194981
15	0x3d29688d	0.041359473
16	0xbdf6532c	-0.120275825
17	0xbe50cf28	-0.20391524
18	0xbdfd6672	-0.123730555
19	0xbdf43f87	-0.119261794
20	0xbdd8d0de	-0.10586713
21	0xbd82bc9b	-0.0638363
22	0x3c8c9251	0.017159613
23	0x3d03efbb	0.032211047
24	0xbe5b8ffc	-0.21441644
25	0x3ea4ada4	0.32163727
26	0x3eab1a22	0.33418375
27	0x3ecf28d3	0.40460834
28	0x3e75e604	0.24013525
29	0xbe2c3c6b	-0.16819923
30	0xbd1888ce	-0.037239842
31	0x3dad0bec	0.084495395
32	0x3eceddbe	0.4040355
33	0x3e6dc8a2	0.23221067
34	0x3e665ad0	0.2249558
35	0xbe1c4d94	-0.15263969
36	0x3db8f7ec	0.09031662
37	0xbd8e108a	-0.06936748
38	0x3e8d5b02	0.27608496
39	0x3e2029ff	0.1564102
40	0xbe9e0c43	-0.3086873
41	0xbddfd787	-0.109297805
42	0xbe65db28	-0.22446883
43	0x3c905e76	0.017623167
44	0x3d8a929f	0.06766247
45	0xbe88dc3a	-0.2673052
46	0xbecba309	-0.39772823
47	0xbe88d157	-0.26722214
48	0xbcd51616	-0.026011508
49	0x3b587262	0.0033027162
50	0x3ea33dc3	0.31883058
51	0x3e9b0c84	0.30282986
52	0x3dd4f301	0.10397912
53	0xbd77cf14	-0.06050022
54	0x3e41d730	0.18929744
55	0x3df77029	0.1208194
56	0xbd000d77	-0.03126284
57	0x3e80ab0e	0.25130504
58	0x3e82ae16	0.25523442
59	0x3e8af8a5	0.27142826
60	0xbe267216	-0.16254458
61	0xbd134f31	-0.035964195
62	0x3d8e2c89	0.06942088
63	0x3e3206e6	0.17385444
64	0xbdb3c544	-0.0877786
65	0xbe3c8c4c	-0.18412894
66	0x3dace0a5	0.08441285
67	0x3c00eb1b	0.0078685535
68	0x3e5ba486	0.2144948
69	0x3d69e58c	0.05710368
70	0x3b280464	0.0025637383
71	0xbb5248c7	-0.0032086836
72	0x3ddc77d2	0.107650414
73	0x3e365f2c	0.17809743
74	0xbe2c1f91	-0.16808917
75	0x3e1a945b	0.15095656
76	0xbe1c3bc6	-0.15257177
77	0xbe32ded1	-0.1746781
78	0x3d79f7ec	0.061027452
79	0x3da52c01	0.08065034
80	0x3df14747	0.11781173
81	0xbe4570fd	-0.19281383
82	0xbe66b547	-0.2253009
83	0x3e51efa9	0.2050158
84	0x3da8d6db	0.082441054
85	0x3d67dbc1	0.056606058
86	0xbd4959f5	-0.049158055
87	0xbe50248d	-0.20326443
88	0x3df3039a	0.11865921
89	0x3e1f9077	0.15582453
90	0xbe268d0b	-0.16264741
91	0xbe2e0126	-0.16992626
92	0x3cfd363d	0.030909652
93	0x3de0b494	0.109719425
94	0x3cb5003a	0.022094835
95	0xbe098139	-0.13428201
96	0x3d8beb7f	0.06832027
97	0xbdd22fb6	-0.102630064
98	0x3e080c86	0.13286027
99	0x3e07e997	0.13272701
100	0xbe54ed71	-0.20793702
101	0xbe373368	-0.17890704
102	0x3e80246d	0.2502779
103	0x3da8b95e	0.08238481
104	0x3e056ccf	0.13029788
105	0x3d7570bf	0.059921976
106	0x3e252ac7	0.161296
107	0x3ebb51a5	0.36585727
108	0x3ebf946f	0.37417933
109	0xbdeb361a	-0.114849284
110	0x3dfd58a4	0.123704225
111	0x3e886c45	0.26645103
112	0x3ea5c408	0.32376122
113	0x3e921c30	0.2853713
114	0xbdf72c6f	-0.12069022
115	0xbda7919d	-0.081820704
116	0xbdc5e824	-0.09663418
117	0x3d9ce389	0.076605864
118	0x3e9dfb56	0.30855817
119	0xbd5c14bb	-0.053730708
120	0x3d31bd97	0.043393698
121	0xbe242fe0	-0.16033888
122	0xbe43cb4a	-0.19120517
123	0x3b81e774	0.003964359
124	0x3e2ac5d3	0.16677026
125	0x3e6e182e	0.23251411
126	0xbd7a1ab4	-0.061060622
127	0x3e02c464	0.1277023
128	0x3e7b8fb3	0.24566536
129	0x3de22445	0.11042074
130	0x3e4c6c0a	0.19963089
131	0x3e68f134	0.22748262
132	0x3e5353ff	0.2063751
133	0x3da5e5bb	0.08100458
134	0xbe4ef1d2	-0.20209435
135	0xbe225bac	-0.15855283
136	0xbdc01f1c	-0.09380934
137	0x3bf845a7	0.0075766626
138	0xbd8d7dd5	-0.06908766
139	0x3dab26bd	0.08356998
140	0x3cfc74d7	0.030817432
141	0xbd36ba2f	-0.044611152
142	0x3e2f4023	0.1711431
143	0x3e6a1719	0.22860374
144	0x3e9b2d50	0.30308008
145	0x3dd00645	0.10157446
146	0xbd7eaa02	-0.06217385
147	0x3e790c54	0.24321109
148	0x3da8459c	0.08216402
149	0x3e16ec86	0.14738664
150	0xbea0122f	-0.31263873
151	0xbe6a6502	-0.22890094
152	0xbe1bb8ce	-0.15207216
153	0x3b113f49	0.0022162965
154	0x3e825622	0.2545634
155	0xbe52fbd7	-0.20603882
156	0xbe58a84c	-0.2115795
157	0x3e016488	0.12636006
158	0x3e65b410	0.2243197
159	0x3e7d7361	0.24751045
160	0xbe5bdffe	-0.21472165
161	0x3d322dae	0.043500595
162	0x3dc79a4c	0.09746227
163	0x3e5f111e	0.21783873
164	0xbbdc042d	-0.006714365
165	0xbe1adaa6	-0.1512247
166	0x3cd0ab32	0.025472257
167	0x3ea1a082	0.3156777
168	0x3e9113db	0.2833546
169	0x3e13efed	0.14446993
170	0x3e82d24c	0.2555107
171	0x3eb0cd92	0.34531838
172	0x3eabde45	0.33568016
173	0x3e1d5abd	0.15366645
174	0xbddcada4	-0.10775307
175	0x3dbcabd5	0.09212462
176	0xbddd8965	-0.108172216
177	0xbd879532	-0.066202536
178	0xbe773b97	-0.24143825
179	0xbe058600	-0.13039398
180	0xbe2f8484	-0.17140394
181	0x3dd48bb8	0.10378212
182	0xbe816878	-0.25275016
183	0xbe82a88f	-0.25519225
184	0xbdcf96a0	-0.10136151
185	0xbdc7933f	-0.09744882
186	0x3d7ec795	0.062202055
187	0xbd9d622a	-0.07684739
188	0xbddd88e0	-0.108171225
189	0x3cabb47e	0.020960089
190	0x3e5b1e9a	0.21398392
191	0xbd8c9e78	-0.06866163
192	0x3e59b511	0.21260478
193	0x3e862d43	0.26206407
194	0x3e9c5755	0.3053538
195	0xbd4bb930	-0.049737155
196	0x3e25c145	0.16187008
197	0xbb05f372	-0.0020439294
198	0x3ea695b2	0.32536083
199	0x3d054360	0.032534957
200	0x3e861626	0.26188773
201	0x3e2b1a6d	0.167093
202	0x395b872d	0.00020935824
203	0xbe0d84a0	-0.13820124
204	0xbe11e60a	-0.14247909
205	0x3e8d382b	0.27581915
206	0x3e5c9dd9	0.21544589
207	0x3d900f64	0.070341855
208	0xbea43e68	-0.32078862
209	0xbc9267c9	-0.017871754
210	0x3ece52b1	0.40297464
211	0x3ec3dd9b	0.3825501
212	0x3e3422d2	0.17591408
213	0xbe7fe9a7	-0.24991475
214	0xbe527a4f	-0.2055447
215	0x3eb2905a	0.34875757
216	0x3b44e49d	0.003004349
217	0x3e894c25	0.26815906
218	0xbe314503	-0.17311482
219	0xbe4be553	-0.19911699
220	0x3e4abb31	0.1979797
221	0xbd3e438e	-0.046451144
222	0x3c2e1168	0.010624267
223	0x3e36a38a	0.17835823
224	0x3e47331a	0.19453087
225	0x3e748082	0.23877147
226	0x3dae1b55	0.08501307
227	0x3c84e81a	0.016223956
228	0x3ea2bbfd	0.3178405
229	0x3d56a631	0.052404586
230	0xbd8cbc50	-0.06871855
231	0x3e03894d	0.12845345
232	0xbd3a477f	-0.04547834
233	0x3e298928	0.16556227
234	0x3e3475d5	0.17623074
235	0xbe730ab9	-0.23734559
236	0xbe6762f9	-0.22596349
237	0xbd8adcb3	-0.06780376
238	0xbcb37d60	-0.02191037
239	0xbd7154e9	-0.058918867
240	0xbe3c4c75	-0.18388541
241	0xbdc17062	-0.094452634
242	0xbe8d16de	-0.2755651
243	0xbe88c580	-0.2671318
244	0xbe620f9f	-0.22076271
245	0x3e1b244a	0.15150562
246	0x3e203f47	0.15649138
247	0xbdad35a9	-0.084575005
248	0xbd3b2b72	-0.04569573
249	0x3d29f0a6	0.041489266

conv1.bias f4 [10]
0	0x3d8cf920	0.06883454
1	0x3bb9969f	0.0056637074
2	0x3e3143be	0.17310998
3	0x3dda82a0	0.10669446
4	0x3debaf26	0.11508016
5	0x3d0e6e47	0.034773137
6	0x3e4ab670	0.19796157
7	0x3e45dd9c	0.19322819
8	0xbd69bf01	-0.05706692
9	0x3e4f81ba	0.2026433

conv2.weight f4 [20, 10, 5, 5]
0	0xbaa0f59d	-0.001228023
1	0xbd740f62	-0.059584983
2	0x3bde9b5f	0.006793424
3	0xbd91a02f	-0.07110631
4	0x3d24d680	0.040243626
5	0xbd3b27eb	-0.045692366
6	0x3c43157b	0.011906977
7	0xbaf991c4	-0.0019040634
8	0x3c25c2e4	0.010117266
9	0x3d292a91	0.04130036
10	0xbbdd88fd	-0.006760715
11	0xbcc91280	-0.024544954
12	0xbd8abf20	-0.067747355
13	0x3ab78e54	0.0014004209
14	0xbd562b6a	-0.052287497
15	0x3ca0420f	0.01956275
16	0xbca07c3e	-0.019590493
17	0x3cbf67d2	0.023364935
18	0x3d9095c8	0.070598185
19	0x3c30240e	0.010750784
20	0xbd4789a8	-0.048715264
21	0xbd63c82a	-0.055610813
22	0xbd6ff674	-0.058584645
23	0x3d8b1bd5	0.06792418
24	0xba0ff390	-0.0005491311
25	0xbd3ca1fb	-0.046052914
26	0xbd12ffba	-0.03588841
27	0xbd909c74	-0.07061091
28	0xbcea9ca9	-0.028639155
29	0xbd82b4d6	-0.06382148
30	0xbcbff004	-0.023429878
31	0xbcbb4665	-0.022860715
32	0x3ca489cc	0.020085238
33	0x3d10ab3e	0.03531956
34	0xbdb84e15	-0.08999268
35	0xbb8396eb	-0.0040157936
36	0x3d5350de	0.051590793
37	0x3d0f0571	0.0349173
38	0x3d98ad2a	0.074549034
39	0xbcda7fef	-0.026672332
40	0x3d0d85f4	0.034551576
41	0xbb6f3cc6	-0.003650473
42	0xbd8003c8	-0.06250721
43	0x3dd31a22	0.10307719
44	0x3d56a8fc	0.05240725
45	0xbacf0304	-0.0015793745
46	0xbdd941ae	-0.106082305
47	0xbdab6133	-0.08368149
48	0xbd3869aa	-0.045022644
49	0x3caad75f	0.02085465
50	0x39d6bf79	0.0004095992
51	0xbdc9f89b	-0.09861871
52	0xbd953067	-0.07284623
53	0x3c11ff24	0.008910928
54	0x3c3f26c4	0.011666957
55	0x3c97f85c	0.018551044
56	0xbca4b72c	-0.020106874
57	0xbbde45de	-0.006783231
58	0x3d436638	0.047704905
59	0xbb9dc6be	-0.0048149517
60	0x3ccd7902	0.025082115
61	0xbcdaa54e	-0.026690152
62	0xbca8771e	-0.020564612
63	0x3d814e66	0.063137814
64	0xbd1f1932	-0.038842387
65	0xbcdb0c7d	-0.026739353
66	0x3cf7c103	0.030243402
67	0x3d18dad6	0.037318073
68	0x3dc60377	0.096686296
69	0xbbd672ba	-0.006544438
70	0xbd1a4542	-0.037663706
71	0xbd4c3e2d	-0.049863983
72	0xbd89eb4a	-0.06734331
73	0xbcdbf9db	-0.026852539
74	0x3cd87e3c	0.02642738
75	0x3ca50b51	0.020146998
76	0xbc7661b2	-0.015037941
77	0xbd0f95c0	-0.035054922
78	0xbcdc6d95	-0.026907722
79	0x3d978bdf	0.07399725
80	0xbb1fddeb	-0.0024393748
81	0xbca560ba	-0.020187724
82	0xbcea1d96	-0.02857856
83	0xbc51599f	-0.012777715
84	0xbd65d840	-0.056114435
85	0xbd8574ce	-0.06516419
86	0x3aa4a2c2	0.0012560713
87	0x3997d07e	0.00028956303
88	0xbb78d1db	-0.003796688
89	0xbc922876	-0.017841559
90	0x3c4160a1	0.011802823
91	0x3c9a9ef7	0.018874628
92	0x3d3d7159	0.046250675
93	0x3d0a1349	0.033709798
94	0x3cd5098b	0.026005527
95	0xbbb23aa0	-0.0054391176
96	0xbd618c0a	-0.055065192
97	0xbd9eef0e	-0.0776044
98	0x3d033b3e	0.03203892
99	0xbd02dadb	-0.031946998
100	0xbc3fc844	-0.011705462
101	0xb8c2e3d8	-9.29308e-05
102	0xbd5bd7ae	-0.053672485
103	0xbd25433d	-0.040347327
104	0xbc9e3605	-0.019312868
105	0xbcd39656	-0.025828522
106	0xbc3f0488	-0.011658795
107	0x3d78b27f	0.060717102
108	0x3d2a089e	0.041512124
109	0xbcaaa604	-0.020831116
110	0x3d6afdcf	0.057370957
111	0x3d9de537	0.07709735
112	0xba86dd65	-0.0010289369
113	0x3dd9b29f	0.106297724
114	0x3c9f4d32	0.01944599
115	0xbcab231f	-0.02089077
116	0xbd3408a7	-0.043953564
117	0xbd91891e	-0.07106231
118	0x3dd6ebe3	0.104942106
119	0x3d05724e	0.032579713
120	0xbe00c607	-0.12575541
121	0xbc15e2d6	-0.00914832
122	0xbcf8dac0	-0.030377746
123	0x3c9c8ca6	0.019110035
124	0x3bb6d365	0.0055793994
125	0xbd2d08b1	-0.042244617
126	0x3c774ad9	0.015093529
127	0x3d21dccd	0.039517213
128	0x3b909baa	0.004413088
129	0xbd741571	-0.05959076
130	0x3d961f52	0.073301926
131	0x3d2b57e8	0.04183188
132	0x3dc60b3f	0.09670114
133	0x3d9e601f	0.077331774
134	0x3d87ed2b	0.06637033
135	0x3cc6ddf8	0.024275765
136	0x3c5fd244	0.013660971
137	0x3dbdbddf	0.09264731
138	0x3db0e7aa	0.086379364
139	0xbb825124	-0.003976958
140	0xbd252063	-0.04031409
141	0xbd61cc87	-0.055126693
142	0xbc5b4529	-0.013383188
143	0x3c50a2ad	0.012734097
144	0x3dab7454	0.08371797
145	0xbd45388c	-0.04814963
146	0xbd1f7e69	-0.038938913
147	0xba8f2f26	-0.0010924086
148	0x3b02e031	0.0019970054
149	0xbd5b0eab	-0.053480785
150	0x3d2531f5	0.040330846
151	0x3da8de24	0.08245495
152	0xbd336a56	-0.04380258
153	0x3d773797	0.06035575
154	0x3c405afb	0.011740441
155	0x3c590f47	0.013248271
156	0xbc25dafd	-0.010123012
157	0x3c4418f1	0.011968837
158	0xbc8244b1	-0.015901895
159	0x3ce7bb26	0.028287482
160	0xbc87b308	-0.016564861
161	0xbc930264	-0.017945476
162	0xbdb81ffe	-0.08990477
163	0xbdd03a05	-0.10167316
164	0xbcf008b8	-0.029301032
165	0xbd84bf57	-0.06481808
166	0xbcff6450	-0.031175762
167	0xbd401d23	-0.046902787
168	0xbd0d9796	-0.03456839
169	0xbc701837	-0.014654211
170	0x3dae85a0	0.08521581
171	0x3d31ec68	0.043438345
172	0x3d78e512	0.060765333
173	0xbbf0b1fa	-0.007345435
174	0xbd302b14	-0.043009833
175	0x3d6290e6	0.055313967
176	0xbd451f84	-0.04812576
177	0x3d564a26	0.052316807
178	0xbd4045a8	-0.04694143
179	0x3cf977de	0.030452665
180	0x3ca0cda6	0.01962931
181	0x3ba594ab	0.005053123
182	0xbd993d73	-0.07482424
183	0x3b4d0f47	0.0031289624
184	0xbd86a449	-0.06574304
185	0xbd87d8a1	-0.066331156
186	0xbcbe6ae3	-0.023244327
187	0xbce3bd55	-0.027800241
188	0x3c4be79d	0.012445358
189	0xbba126a8	-0.0049179383
190	0x3d806b2a	0.0627044
191	0x3ca4cfe6	0.020118665
192	0xbd9083b7	-0.070563726
193	0xbd8c6f22	-0.068571344
194	0x3d3df9d2	0.046380825
195	0x3c72cb47	0.014818973
196	0x3cf7230d	0.03016808
197	0xbdad1cd4	-0.08452764
198	0x3b1feff4	0.0024404498
199	0xbc5c6524	-0.013451848
200	0xbd7aa507	-0.06119254
201	0x3c2d6a09	0.010584363
202	0xbc1de1b9	-0.009636336
203	0xbc379a90	-0.011206284
204	0xbc4e8986	-0.01260603
205	0xbd81e0da	-0.06341715
206	0xbadcaaad	-0.0016835533
207	0x3d34bc17	0.04412469
208	0x3db248e8	0.08705312
209	0x3dd68544	0.10474637
210	0x3cd0a109	0.025467413
211	0x3d4930ab	0.04911868
212	0xbc96d5f8	-0.018412575
213	0x3d4e7ca4	0.050411835
214	0x3dd807a4	0.10548332
215	0xbe0de214	-0.13855773
216	0xbd5cf21f	-0.053941842
217	0xbd7356a4	-0.0594088
218	0x3ca3762b	0.019953808
219	0x3db74f05	0.08950619
220	0xbdb023ed	-0.08600602
221	0xbdc8fbe2	-0.09813668
222	0xbd95c4da	-0.07312937
223	0x3d1e8d93	0.038709234
224	0x3d2428a7	0.04007783
225	0x3c399768	0.011327602
226	0x3bbd1926	0.00577082
227	0xbd304bdb	-0.04304109
228	0x3bbbc102	0.0057297954
229	0xbd9bd0d6	-0.07608192
230	0x3c8a1dda	0.016859937
231	0x3d2cc6f2	0.042181917
232	0x3d3d8a37	0.04627439
233	0xbd5dd26e	-0.05415576
234	0xbd764a3a	-0.06012938
235	0x3d083404	0.03325273
236	0xbd83e205	-0.06439594
237	0xbd923151	-0.071383126
238	0xbda80e60	-0.08205867
239	0xbd94f3e4	-0.07273081
240	0x3cc236bb	0.023707738
241	0xbce9d6ca	-0.028544802
242	0xbc6e5e47	-0.014548845
243	0xbd4713cb	-0.04860286
244	0x3ce7a56d	0.028277123
245	0xbcc7d993	-0.02439574
246	0xbd87ffdb	-0.066405974
247	0x3b83f7b6	0.004027332
248	0xbd0578c7	-0.032585885
249	0x3d7169af	0.05893868
250	0x3c975ed6	0.018477838
251	0xbda7c44b	-0.08191737
252	0xbdb89411	-0.090126164
253	0xbd6c80fc	-0.057740197
254	0xbcd232ed	-0.025659049
255	0xbca368c5	-0.019947419

conv2.bias f4 [20]
0	0xbbc5d29e	-0.0060370704
1	0xbd51e769	-0.05124608
2	0xbd05266b	-0.03250734
3	0xbce3a8c9	-0.027790444
4	0xbd4a5795	-0.04939993
5	0xbc29e29b	-0.010368968
6	0xb9b4cfca	-0.0003448709
7	0xbd3c55f2	-0.0459804
8	0xbd3cba09	-0.046075854
9	0x3d2fc89e	0.042915933
10	0xbca1b523	-0.019739693
11	0xbd99a15a	-0.075014785
12	0xbc823b1f	-0.015897332
13	0xbcac655d	-0.021044428
14	0xbd9b6388	-0.075873435
15	0xbbf7e086	-0.007564607
16	0xbd021b12	-0.031764098
17	0xbd2fd348	-0.042926103
18	0x3c501c9b	0.012702133
19	0xbccbf0c2	-0.024895076

fc1.weight f4 [250, 320]
0	0x3cc631fb	0.024193754
1	0xbd91f495	-0.071267284
2	0x3d1074ff	0.035267826
3	0x3c8bbd72	0.017058108
4	0xbcf400cd	-0.029785538
5	0x3ca6ee96	0.020377439
6	0x3d72f35f	0.059314128
7	0x3a850516	0.001014861
8	0x3cf147e1	0.02945322
9	0xbd0fad28	-0.035077244
10	0xba82a084	-0.000996605
11	0xbc690447	-0.014222211
12	0xbd86b0c9	-0.06576688
13	0xbc34b0e0	-0.011028498
14	0xbcbff894	-0.023433961
15	0x3ab8fbf2	0.0014113171
16	0xbabf654c	-0.0014602332
17	0xbd8a3007	-0.06747442
18	0x3d229149	0.039689336
19	0xbc878b4a	-0.01654591
20	0x3ccebb63	0.025235837
21	0xbd40355c	-0.046925887
22	0x3d62ba48	0.055353433
23	0x3cbb6adb	0.022878101
24	0x39189fdb	0.000145554
25	0xbcaba02d	-0.020950401
26	0x3b2876cb	0.0025705572
27	0x3c15c181	0.009140373
28	0x3c1c4073	0.00953685
29	0x3d3dadec	0.046308443
30	0xbd23d394	-0.0399967
31	0xbcdbc31c	-0.026826434
32	0x3d67510c	0.056473777
33	0x3d6c1a89	0.057642493
34	0xbc63199d	-0.013861087
35	0x3a32f483	0.0006826596
36	0x3c902db3	0.017599916
37	0x3d25a349	0.040438924
38	0xbc8ef6e6	-0.017451715
39	0xbd1f5a6a	-0.038904585
40	0xbd5a1971	-0.05324692
41	0xbcaa6fbf	-0.020805238
42	0x3d89e9e9	0.06734068
43	0xbbb60a2c	-0.005555412
44	0xbd844506	-0.06458478
45	0x3d88f6c4	0.06687692
46	0x3c6e8e46	0.014560288
47	0xbd4034a8	-0.046925217
48	0xbcbb877f	-0.022891758
49	0x3d03d3b2	0.03218431
50	0xbd2d700a	-0.042343177
51	0x3d2aac4f	0.041668233
52	0xbc938e29	-0.018012123
53	0xbd2934a3	-0.041309964
54	0xbd2ba652	-0.041906662
55	0x3cf49320	0.02985531
56	0xbd4a41e3	-0.04937924
57	0xbcd24090	-0.025665551
58	0x3ce0f7a7	0.02746184
59	0xbd3fdba4	-0.046840325
60	0x3d8b819d	0.06811831
61	0x3d235afe	0.0398817
62	0x3c70e340	0.014702618
63	0xbc3626da	-0.011117661
64	0xbcf24392	-0.029573236
65	0xba9de4e7	-0.0012046368
66	0xbce83ab0	-0.028348297
67	0xbb48a222	-0.0030614217
68	0xbd46b350	-0.04851085
69	0xbc7aac07	-0.015299804
70	0xbc91d515	-0.0178018
71	0xbc6cc952	-0.014452295
72	0xbca24e1f	-0.019812642
73	0x3c9b6275	0.018967846
74	0xbcfed73e	-0.031108495
75	0xbd3ed175	-0.046586473
76	0xbc1fbebd	-0.009750065
77	0x3d9d3a8a	0.07677181
78	0x3cba7c6b	0.022764405
79	0xbd6f41a5	-0.058412213
80	0xbd8496c9	-0.064740725
81	0xbc9293ca	-0.017892737
82	0xbd1dbc67	-0.038509753
83	0x3c942bad	0.018087232
84	0xbd17abcc	-0.037029073
85	0x3c4e3d4c	0.0125878565
86	0xbc3ee40a	-0.011651048
87	0xbd4b10ef	-0.049576696
88	0xbc0d35a9	-0.008618751
89	0x3d44a997	0.048013296
90	0x3d335175	0.043778855
91	0xbd253666	-0.04033508
92	0xb9e45e7e	-0.0004355795
93	0x3d871b91	0.06597055
94	0xbb9b5f5e	-0.0047415933
95	0xbc910b78	-0.017705664
96	0x3cc613c7	0.024179352
97	0xbba8ad68	-0.0051476248
98	0xbc4978db	-0.012296881
99	0x3d296b1a	0.041361906
100	0xbcc5f1f1	-0.024163218
101	0xbd388869	-0.045051966
102	0x3cf52049	0.029922621
103	0x3cbf3dab	0.023344835
104	0x3c2fb903	0.010725263
105	0xbc938310	-0.018006831
106	0xbd05f16a	-0.032700934
107	0x3cccd3ac	0.025003277
108	0x3c849c3c	0.01618778
109	0xbce0f3ad	-0.027459944
110	0x3ca59993	0.020214831
111	0xbc73df51	-0.014884786
112	0x3cd3cc80	0.02585435
113	0x3c15e54b	0.009148906
114	0xbb1ac00c	-0.0023613004
115	0x3bea5833	0.0071516274
116	0xbb479243	-0.003045217
117	0x3d633a5c	0.055475578
118	0xbd07bb08	-0.03313735
119	0xbca8fb41	-0.02062762
120	0x3d37acd0	0.04484254
121	0x3cf00e9c	0.029303841
122	0x3cf699e0	0.03010267
123	0x3d0fd078	0.03511092
124	0xbd6dfbfa	-0.05810163
125	0xbcfa722f	-0.030572025
126	0x3cd1f0c1	0.025627496
127	0xbd568bf5	-0.052379567
128	0x3cabe407	0.020982755
129	0x3c96fcbb	0.018431058
130	0x3cc5addd	0.024130756
131	0x3cd1d474	0.025614
132	0x3cb919af	0.022595255
133	0xbd64c3f7	-0.05585095
134	0xbc8da919	-0.017292546
135	0x3d2835a6	0.041066788
136	0xbd0898d5	-0.033348877
137	0x3ba1e074	0.004940087
138	0xbc7302c3	-0.014832201
139	0xbac26e24	-0.001483385
140	0xbc86d4f2	-0.016458962
141	0xbbd5bc50	-0.0065226927
142	0x3c862db9	0.016379224
143	0x3d6ee58b	0.058324378
144	0xbc5d6e5e	-0.013515083
145	0xbd066e25	-0.032819886
146	0x3cedea05	0.029042253
147	0xbc9cc77e	-0.019138094
148	0x3afcc1e5	0.0019283859
149	0xbbfd3e57	-0.0077283788
150	0xbc70ad59	-0.014689767
151	0x3d123964	0.035699263
152	0xbc5d41fb	-0.0135045005
153	0xbd3572f1	-0.04429907
154	0x3c9764e6	0.01848073
155	0x3b9104b0	0.0044256076
156	0x398c6f1a	0.00026785658
157	0x3d0328f2	0.03202147
158	0xbca6932b	-0.020333847
159	0x3a231055	0.000622039
160	0xbd211e3e	-0.03933548
161	0x3c7f75bd	0.015592036
162	0x3d196946	0.037453912
163	0xbc91eb5c	-0.017812423
164	0xbd8168a4	-0.06318787
165	0x3d438427	0.047733452
166	0xbd310ae1	-0.043223266
167	0x3cf0b636	0.02938376
168	0x3d026f34	0.031844333
169	0xbc975045	-0.018470893
170	0xbbe5ae4b	-0.0070093027
171	0xbd1697c2	-0.03676582
172	0x3d365ab0	0.04452008
173	0xbd013345	-0.031543035
174	0xba85cfb1	-0.0010208992
175	0xbd2a1cb9	-0.0415313
176	0x3d6035fc	0.054738984
177	0x3d044520	0.032292485
178	0x3d4eb298	0.05046329
179	0xbd19c2ff	-0.03753948
180	0x3c049500	0.008092165
181	0xbd158084	-0.036499515
182	0x3d122e55	0.035688717
183	0xbcadbe9c	-0.021209054
184	0x3cc6e7b3	0.024280405
185	0x3cb7893e	0.02240431
186	0xbda45c70	-0.080254436
187	0xbc28016e	-0.010254247
188	0xbd51b80f	-0.051200923
189	0xbd12536e	-0.035724096
190	0xbd744555	-0.059636433
191	0xbcb5d2ef	-0.022195308
192	0x3bb37663	0.0054767593
193	0x3d44b1bf	0.048021074
194	0x3c83c62e	0.01608571
195	0x3c194472	0.009354698
196	0xbc3082ee	-0.010773404
197	0xbd645aa2	-0.055750497
198	0xbccb7467	-0.024835778
199	0xbc9e2292	-0.019303594
200	0x3cab2e64	0.020896144
201	0xbb864bea	-0.004098405
202	0x3c8f9207	0.017525686
203	0xbcee2616	-0.029070895
204	0xbd628092	-0.055298395
205	0x3ca7f958	0.020504639
206	0x3cf73383	0.03017593
207	0x3cf1cf77	0.029517872
208	0x3d237beb	0.0399131
209	0xbd6d0627	-0.057867195
210	0x3cd00844	0.025394566
211	0x3d496635	0.049169738
212	0xbd05dc10	-0.03268057
213	0x3d00901f	0.031387445
214	0x3ce1f446	0.027582299
215	0x3c5e2dd8	0.013560735
216	0xbd62a644	-0.055334345
217	0x3cd301ca	0.025757689
218	0x3d47dc42	0.04879404
219	0xbc0d56ba	-0.008626634
220	0x3cbc8da7	0.023016764
221	0x3d2d4774	0.04230447
222	0xbd2ba980	-0.041909695
223	0xbd60eab3	-0.054911327
224	0x3d26296d	0.04056685
225	0x3cf875d3	0.03032962
226	0x3c17d84b	0.009267877
227	0xbd3eda83	-0.046595108
228	0xbd36865a	-0.04456172
229	0x3b8da4e1	0.0043226336
230	0x3c26d524	0.010182653
231	0xbd226bb7	-0.039653506
232	0xbc8c3dde	-0.017119344
233	0xba57297e	-0.0008207782
234	0xbd5e7796	-0.054313265
235	0x3bb457ff	0.005503654
236	0x3d5a5907	0.05330756
237	0x3cf14c91	0.029455455
238	0xbda1a657	-0.07893055
239	0xbd811c28	-0.063041985
240	0xbd395d19	-0.0452548
241	0x3c8a82b1	0.016908022
242	0xbd3df05b	-0.0463718
243	0x3d1459d7	0.03621849
244	0x3c87a856	0.016559761
245	0x3c1506fa	0.009095902
246	0x3d1aa974	0.03775926
247	0xbd095fe2	-0.033538707
248	0x3c8cf324	0.017205782
249	0x3c867fb4	0.016418315
250	0x3d2e58a7	0.042565014
251	0xbc90ee73	-0.017691826
252	0xbd03223c	-0.03201507
253	0x3d0732b1	0.033007327
254	0xbc76ff08	-0.015075453
255	0xbc8e5014	-0.017372169

fc1.bias f4 [250]
0	0x3cc117f0	0.023570985
1	0x3d34a2cf	0.04410058
2	0x3c85e401	0.016344072
3	0x3d7c9e68	0.061674505
4	0x3d5df3ba	0.054187514
5	0xbd46e89a	-0.04856167
6	0x3c0ef4c5	0.00872535
7	0x3c39ab57	0.0113323545
8	0x3d521124	0.051285878
9	0x3ca28761	0.019839944
10	0xbcef454d	-0.02920785
11	0xbc3205e5	-0.010865663
12	0x3a042211	0.00050404767
13	0xbd4f4944	-0.05060698
14	0x3d522633	0.05130596
15	0x3d5b97a8	0.053611428
16	0x3adf0285	0.0017014301
17	0x3caca487	0.021074547
18	0xbc1f5fc3	-0.009727421
19	0xbd3a3d69	-0.04546872
20	0xbd71637d	-0.05893277
21	0x3cd59779	0.026073204
22	0x3b4f0087	0.0031586008
23	0xbd4c506f	-0.049881395
24	0x3c87cd18	0.016577289
25	0xbd1e7045	-0.038681287
26	0x38e1262b	0.000107359454
27	0x3d3a4614	0.045476988
28	0x3c6fd24a	0.014637539
29	0x3c9771ff	0.018486975
30	0xbd02e78e	-0.03195911
31	0x3c78ac46	0.015177792
32	0xbc319a75	-0.010840048
33	0xbce8a2ab	-0.028397879
34	0xbd14edff	-0.036359783
35	0xbb975dbc	-0.0046193283
36	0x3d38a700	0.04508114
37	0xbd3cb6d2	-0.04607279
38	0xbcf9a7f8	-0.030475602
39	0xbcd9dfc6	-0.026595961
40	0x3d271cc7	0.04079893
41	0xbc89cf86	-0.016822588
42	0xbcdb915b	-0.02680271
43	0xbb67b502	-0.0035355692
44	0x3cc59afe	0.024121758
45	0x3d3961e4	0.04525937
46	0xbcdff0fd	-0.027336592
47	0xbbba38c1	-0.005683035
48	0x3c88592c	0.016644083
49	0x3c1413bd	0.009037909
50	0xbd220ddd	-0.039564002
51	0xbcdc9870	-0.026928157
52	0xbd0f623d	-0.035005797
53	0xbc9cc28e	-0.01913574
54	0x3ca944f7	0.020662768
55	0x3c2e94bd	0.010655579
56	0xbca4c7e8	-0.020114854
57	0x3bac96d1	0.005267002
58	0xbd43ec95	-0.047833044
59	0xbb50457b	-0.0031779695
60	0xbc0228d6	-0.007944306
61	0x3c486d2d	0.012233061
62	0x3d12f691	0.035879675
63	0x3d51d098	0.05122432
64	0x3cce0a54	0.02515141
65	0x3c831a91	0.016003879
66	0x3cf75e96	0.03019647
67	0x3d25e977	0.040505853
68	0x3d5c43ac	0.053775474
69	0xbab56ec0	-0.001384221
70	0x39b63a77	0.00034757305
71	0xbc9f34d0	-0.019434363
72	0xbca21ada	-0.019788194
73	0x3c1ffe39	0.009765201
74	0x3cbd71fb	0.02312564
75	0xbcd557f4	-0.026042916
76	0xbcf91dd4	-0.030409731
77	0x3d1b0403	0.037845623
78	0x3c4fa9da	0.012674773
79	0xbcf037f0	-0.029323548
80	0xbc7cecf0	-0.01543735
81	0x3ccab0af	0.024742452
82	0xbc235a1a	-0.009970212
83	0xbd3efe50	-0.04662925
84	0xbbab1999	-0.0052215573
85	0x3cc35a4d	0.02384677
86	0x3cecc925	0.028904507
87	0xbcb6c0c2	-0.022308711
88	0x3bf78698	0.0075538866
89	0xbd36a8b2	-0.044594474
90	0x3d7f38f6	0.06231018
91	0xbd0f9802	-0.035057075
92	0x3bc502b7	0.0060122865
93	0xbd191a91	-0.03737885
94	0x3b5e809a	0.0033951164
95	0x3d4eae9e	0.050459497
96	0x3d1f6f6f	0.03892463
97	0x3b4bc515	0.0031092812
98	0x3c072be9	0.008250215
99	0x3d2754c2	0.040852316
100	0xbb6019a6	-0.0034194975
101	0xbc85a0c9	-0.01631202
102	0xbd61419b	-0.054994207
103	0x3d4afa0d	0.049554873
104	0xba48c938	-0.00076593785
105	0x3c44b4a2	0.012005957
106	0x3d6c549b	0.057697874
107	0xbd6d34db	-0.057911735
108	0x3ce4f493	0.027948653
109	0xbd5efb13	-0.05443866
110	0x3c89167d	0.016734356
111	0x3cc06d71	0.023489686
112	0x3d38a8d1	0.04508287
113	0x3d8b39f2	0.067981616
114	0x3d5e5a63	0.05428542
115	0xbcb1666e	-0.021655288
116	0x3d0f7322	0.03502191
117	0xbcd8382b	-0.02639397
118	0xbcaa10c0	-0.02075994
119	0xbca89c3f	-0.020582316
120	0xbcab0560	-0.020876586
121	0xba53c03a	-0.0008077655
122	0xbd3ce526	-0.04611697
123	0xbcd1b802	-0.025600437
124	0xbd393934	-0.04522057
125	0xbc3d9c2e	-0.011572881
126	0x3b77274f	0.0037712639
127	0xbd06dae0	-0.03292358
128	0x3a155d04	0.00056977593
129	0xbc020ba5	-0.007937347
130	0xbd4cd7e9	-0.050010595
131	0xbd4eb992	-0.050469942
132	0x3b387972	0.002814856
133	0x3c976d07	0.018484605
134	0xbd4c3c59	-0.04986224
135	0xbd104f57	-0.035231914
136	0xbc85fdb9	-0.016356336
137	0x3bbcd41e	0.005762591
138	0x3d1ac76d	0.037787843
139	0xbcc70f7d	-0.024299378
140	0x3bc4e6ed	0.006008974
141	0x3d89e791	0.06733621
142	0xbc563930	-0.013075158
143	0xbcb429ea	-0.021992642
144	0xbd43bfeb	-0.04779045
145	0x3c753890	0.014967099
146	0x3cb883e3	0.022523826
147	0xbc1dbd30	-0.009627625
148	0xbc83a210	-0.016068488
149	0x3d32b93d	0.04363369
150	0x3cc922e2	0.024552766
151	0x3d75f748	0.06005028
152	0x3d140cd8	0.03614506
153	0x3d5c1ecf	0.05374032
154	0x3cbde38e	0.023179796
155	0x3d648693	0.055792402
156	0xbbbc70b1	-0.0057507385
157	0xbcef11c2	-0.029183272
158	0x3c462d5c	0.012095775
159	0xbd27aa41	-0.04093385
160	0xbd32d4da	-0.043660022
161	0xbc22206b	-0.009895424
162	0xbbab08e2	-0.005219565
163	0xbd0ca551	-0.034337346
164	0xbc14bf38	-0.009078793
165	0x3cff7494	0.031183518
166	0xbcc85e3d	-0.024458999
167	0xbb476085	-0.003042252
168	0x3c13fdd2	0.009032683
169	0x3cacca75	0.021092633
170	0xbc21762e	-0.009854836
171	0x3d319762	0.04335726
172	0x3d5ee5dc	0.05441843
173	0xbd4796f7	-0.048727956
174	0x3d3319ec	0.043725893
175	0x3d26c5a3	0.040715825
176	0x3b89863c	0.00419691
177	0xbc42c188	-0.011886962
178	0xbd050cc2	-0.03248287
179	0xbc4e05da	-0.012574637
180	0xbcfe8d41	-0.031073214
181	0x3b9477a9	0.004530866
182	0x3cee6018	0.029098555
183	0xbce4df00	-0.027938366
184	0x3ccfa69a	0.025347997
185	0x3d770763	0.06030978
186	0xbc85d8b7	-0.01633869
187	0xbccfcac5	-0.025365243
188	0xbb623c92	-0.0034520966
189	0x3cb1545b	0.02164667
190	0x3d3289e1	0.043588523
191	0xbcffa896	-0.031208318
192	0x3d2301dc	0.039796695
193	0xbc83a259	-0.016068624
194	0x3d32c16a	0.043641485
195	0x3d729fd3	0.05923445
196	0x3c3382a7	0.010956443
197	0xbbc3856e	-0.005966834
198	0x3b95d0c7	0.0045720073
199	0xbcef8b55	-0.029241243
200	0xbcab5e62	-0.020919029
201	0xbcfacd06	-0.03061534
202	0x3d4c240b	0.04983906
203	0xbd5804f7	-0.05273911
204	0x3cef3588	0.02920033
205	0x3c1b476a	0.009477476
206	0xbd353c7c	-0.044247136
207	0x3d13ff00	0.03613186
208	0xbc8e7700	-0.017390728
209	0x3ce6ef8f	0.028190402
210	0x3c6fb436	0.014630368
211	0x3b4b5688	0.0031026918
212	0xbcb19c85	-0.02168108
213	0x3c856fe3	0.016288703
214	0x3d618483	0.055058014
215	0xbca24f3d	-0.019813174
216	0xbafd2596	-0.001931357
217	0xbcf488b9	-0.02985035
218	0x3ccba3b5	0.024858335
219	0xbab78f31	-0.0014004466
220	0x3c8e0856	0.01733796
221	0xbd02486b	-0.031807344
222	0x3cac786a	0.021053512
223	0xbc6f9d98	-0.014624976
224	0xbcb0e3b0	-0.021592945
225	0x3ac277b2	0.0014836697
226	0x3d234269	0.039858256
227	0x3c1750e6	0.009235596
228	0xbd1ebfb4	-0.03875704
229	0xbd4cbd6d	-0.049985338
230	0x3cae2ea1	0.021262469
231	0x3d379ae6	0.044825457
232	0xbd4f8014	-0.050659254
233	0x3d288391	0.041141097
234	0xbcd6a32e	-0.026200857
235	0x3d1db1af	0.03849953
236	0xbcc85d74	-0.024458624
237	0xbd23a98c	-0.039956614
238	0x3d5889f5	0.05286594
239	0x3cef3027	0.029197766
240	0xbc1c743b	-0.009549196
241	0x3d4fadbe	0.050702803
242	0xbd6dee05	-0.05808832
243	0xbcc74ea3	-0.02432949
244	0xbc10d745	-0.008840387
245	0x3c2b8039	0.010467582
246	0x3ba05104	0.0048924703
247	0x3d8283bd	0.06372783
248	0xbd02dd7b	-0.0319495
249	0x3ccebfb4	0.025237896

fc2.weight f4 [100, 250]
0	0x37bc1766	2.2422242e-05
1	0xbc7704b9	-0.01507681
2	0x3b330211	0.0027314464
3	0xbc06894c	-0.008211445
4	0x3ce40fa8	0.027839497
5	0x3d6ebc62	0.058285125
6	0x3d0e7aa2	0.03478492
7	0xbcfe1dfd	-0.031020159
8	0x3bda7621	0.006666914
9	0x3d6f5566	0.05843105
10	0xbc198b20	-0.009371549
11	0xbd12b0fb	-0.035813313
12	0xbd1420a5	-0.036163945
13	0xbbd05cd8	-0.006358724
14	0x3cc36a58	0.02385442
15	0xbccfdf2e	-0.025374975
16	0xbbcafd9f	-0.006194785
17	0xbd1241f5	-0.035707433
18	0xbcbd7fe0	-0.023132265
19	0x3c494f0c	0.012286913
20	0xbba25694	-0.0049541686
21	0x3d26709a	0.04063473
22	0xbd0f6176	-0.035005055
23	0x3d743d6d	0.059628893
24	0xbc83289e	-0.016010579
25	0x3da043b6	0.07825415
26	0x3d8aaa56	0.0677077
27	0x3d17f132	0.037095256
28	0xbc94d8b4	-0.018169738
29	0xbd2dc049	-0.042419706
30	0x3cf23602	0.029566769
31	0xbcd4f159	-0.02599399
32	0x3ceb128a	0.028695364
33	0x3d94efd8	0.07272309
34	0xbba85fe9	-0.0051383865
35	0x3d20958b	0.039205115
36	0xbcf52699	-0.029925631
37	0x3cde536d	0.02713939
38	0x3c72e567	0.014825202
39	0xbd116e41	-0.035505537
40	0xbba3ecfe	-0.005002617
41	0x3d2699ea	0.040674128
42	0x3d1d3cd6	0.038388096
43	0x3cc5726b	0.02410241
44	0x3dc54013	0.09631362
45	0x3cbaa41f	0.022783337
46	0x3c548ac6	0.012972539
47	0x3d839363	0.06424596
48	0xbd9ce4aa	-0.07660802
49	0x3ce7683b	0.028247943
50	0x3d8d2353	0.06891503
51	0x3d0ce4c7	0.034397867
52	0xbce39e87	-0.027785553
53	0x3cf536fe	0.029933449
54	0xbd411d89	-0.047147308
55	0x3d782dc0	0.060590506
56	0x3d082286	0.03323605
57	0x3d44f8a6	0.048088692
58	0xbcc04879	-0.023472058
59	0xbc005614	-0.007833023
60	0x3da2a642	0.079418674
61	0xbc47dec4	-0.012199108
62	0xbcef14a4	-0.029184647
63	0x3d216615	0.039403994
64	0x3d52bfa8	0.05145231
65	0x3d81039c	0.062995166
66	0x3d63b3d5	0.055591423
67	0x3ce4afa0	0.027915776
68	0xbba75327	-0.005106348
69	0x3d002a15	0.031290133
70	0x3cb4574e	0.022014286
71	0x3d9d0725	0.07667378
72	0xba5515aa	-0.00081285334
73	0x3ba0efce	0.0049113994
74	0xbbb03b80	-0.0053781867
75	0xbd59aee1	-0.053145293
76	0xbc1b474f	-0.0094774505
77	0x3da433d2	0.080176964
78	0x3cedc92f	0.029026596
79	0x3d10e337	0.03537294
80	0x3d435155	0.047684986
81	0x3bd4c88a	0.0064936327
82	0x3ce95503	0.02848292
83	0xbc817c81	-0.015806438
84	0x3cf9762c	0.030451857
85	0x3c9b83a9	0.018983679
86	0xbd150893	-0.03638513
87	0xbd16ab21	-0.036784295
88	0x3d76fe63	0.060301196
89	0x3d17696a	0.036965765
90	0x3cd70099	0.026245402
91	0xbc9b3003	-0.018943792
92	0xbcb35d1b	-0.021894982
93	0xbce2fe57	-0.02770917
94	0xbd42ccd4	-0.04755862
95	0x3d64da6c	0.055872366
96	0x3bd0eb25	0.0063756877
97	0x3b16d525	0.0023015228
98	0x3ca17376	0.019708376
99	0xbc8db4e3	-0.017298168
100	0x3d2cce29	0.042188797
101	0xbc61d3e1	-0.013783426
102	0x3b4e57d1	0.0031485448
103	0xbd4d511d	-0.050126184
104	0xbc30aeb2	-0.010783838
105	0xbc546e85	-0.012965803
106	0x3d4ee107	0.05050757
107	0x3c649f46	0.013953989
108	0x3d0da8ae	0.034584694
109	0x3cb96529	0.022631245
110	0x3c06c05d	0.008224574
111	0xbd3c2ea8	-0.045942932
112	0xba032b13	-0.0005003672
113	0x3d86c49d	0.0658047
114	0xbd184dc0	-0.037183523
115	0xbd9d007d	-0.07666109
116	0xbce6b6ef	-0.028163401
117	0xbc40f273	-0.011776554
118	0xbc74ee49	-0.01494939
119	0xbce209c0	-0.02759254
120	0xbc6c0390	-0.014405146
121	0x3d92d1e5	0.071689405
122	0xbce499cc	-0.027905367
123	0xbbffd79a	-0.007807684
124	0x3d629b77	0.055324044
125	0xbd893b70	-0.0670079
126	0x3cb7b647	0.022425784
127	0x3d6e4f8e	0.058181338
128	0x3d0ed74c	0.03487329
129	0x3d086bf8	0.033306092
130	0xbc9b4685	-0.018954525
131	0x3d199f32	0.037505336
132	0x3d1796d3	0.03700907
133	0x3b83179d	0.0040006177
134	0xbd7b6ada	-0.0613812
135	0x3c68822a	0.01419119
136	0x3c9f40ba	0.019440044
137	0x3d8dda8a	0.06926449
138	0x3c0d9766	0.008642053
139	0x3c9f9f8b	0.019485256
140	0xbd8c3adb	-0.06847163
141	0xbd55b08e	-0.05217033
142	0xbd92084d	-0.071304895
143	0xbc2bb54b	-0.010480235
144	0x3cdb263f	0.026751636
145	0x3d168f3c	0.036757693
146	0x3daf7845	0.085678615
147	0x3d1eb69f	0.03874838
148	0x3c7b5be9	0.015341737
149	0x3c4d1b0f	0.012518658
150	0xbd829295	-0.063756146
151	0xbd2a555f	-0.041585322
152	0xbd2259f1	-0.039636556
153	0x3d845046	0.064606234
154	0x3ca3ba51	0.019986304
155	0xbd7cd360	-0.06172502
156	0x3c7e8e1f	0.015536814
157	0xbd91c3a0	-0.07117391
158	0x3b4ecb6e	0.003155436
159	0xbce7ea48	-0.028309956
160	0xbc10b32c	-0.00883178
161	0x3db445a4	0.088023454
162	0x3bb380ee	0.005478016
163	0x3cb1ad9b	0.021689227
164	0x3d6ce439	0.057834838
165	0xbd0abdbe	-0.03387236
166	0x3d83469b	0.06409951
167	0xbd174aae	-0.036936454
168	0x3d06c0df	0.03289878
169	0xbc51e587	-0.012811071
170	0xbc6a28f8	-0.014291994
171	0xbd4a1170	-0.049333036
172	0x3d1968e7	0.03745356
173	0xbd57eb12	-0.052714415
174	0xba42e720	-0.0007434953
175	0x3baadd84	0.005214395
176	0xbd8b9bf2	-0.068168536
177	0xbd7c66c4	-0.061621442
178	0x3ce6b47b	0.028162232
179	0xbd1c5d4c	-0.038174912
180	0xbd42c5a2	-0.04755176
181	0xbd275be1	-0.040859107
182	0xbd284017	-0.041076746
183	0x3d6507f1	0.055915777
184	0x3c2d1069	0.0105629945
185	0xbba9e39d	-0.0051846043
186	0xbd5b8dc1	-0.053601984
187	0xbc466767	-0.012109614
188	0xbca88c6d	-0.020574773
189	0xbcb5d21c	-0.022194915
190	0x3b40764f	0.0029367392
191	0xbd566ab9	-0.052347872
192	0x3d2e919e	0.04261934
193	0x3df6f32f	0.12058102
194	0xbd38bf10	-0.045104086
195	0x3c9bc458	0.019014522
196	0xbba3b764	-0.004996227
197	0xbcbf9dc5	-0.02339066
198	0xbd126114	-0.035737112
199	0x3d55574e	0.052085213
200	0xbd1c3fa6	-0.038146637
201	0x3cacd7cb	0.021098992
202	0x3d7503f1	0.059818212
203	0x3d0af43f	0.033924337
204	0xbd4654cb	-0.04842071
205	0xbd5e8aaf	-0.054331478
206	0x3b3c7898	0.0028758403
207	0x3c635141	0.013874353
208	0xbcf5a075	-0.029983738
209	0xbca426dc	-0.02003806
210	0xbd1f271b	-0.038855653
211	0x3cb8f38c	0.02257707
212	0xbd88641f	-0.066597216
213	0xbd2a57a8	-0.0415875
214	0x3dc5818a	0.09643848
215	0x3ca71c1e	0.02039915
216	0x3b7bf082	0.0038442914
217	0xbb7c94e9	-0.0038540906
218	0x3d0801c3	0.033204805
219	0xbd94f64a	-0.072735384
220	0x3d2fec76	0.042950116
221	0xbd443a1c	-0.04790698
222	0x3cad0033	0.021118259
223	0x3cfd2260	0.03090018
224	0xbb837309	-0.004011516
225	0xbce6ade3	-0.028159088
226	0xbcf4204c	-0.029800557
227	0x3cb65033	0.022255039
228	0x3d53b3e2	0.05168522
229	0xbd3c75ab	-0.046010654
230	0xbc0a200d	-0.008430493
231	0x3d869d93	0.06573024
232	0x3c96f23e	0.018426057
233	0xbd27ac97	-0.04093608
234	0xbd6cf024	-0.057846203
235	0xbc30875d	-0.010774461
236	0xbd1515bb	-0.036397677
237	0x3c814333	0.015779113
238	0xbcd0051f	-0.025393067
239	0x3ca6a33e	0.020341512
240	0x3d3a5727	0.04549327
241	0xbc9411cb	-0.01807489
242	0xbc731e57	-0.014838777
243	0x3d911b8a	0.07085331
244	0x3cf246f5	0.02957485
245	0x3b384a4c	0.0028120456
246	0xbd385182	-0.044999607
247	0x3d310e3f	0.043226477
248	0x3c59d3e2	0.013295146
249	0x3d744c3d	0.05964302
250	0xbcc310bc	-0.02381169
251	0x3cea804f	0.028625635
252	0xbd1208d4	-0.03565295
253	0xbcb30b3f	-0.021855948
254	0x3d720d94	0.05909498
255	0x3d80a46d	0.06281362

fc2.bias f4 [100]
0	0xbd079e05	-0.033109684
1	0xbb2bad14	-0.0026195692
2	0x3d367a69	0.044550333
3	0xbcf6de05	-0.030135164
4	0x3d92422b	0.07141527
5	0x3ce965fd	0.028491015
6	0x3d4d0652	0.050054856
7	0x3d857f80	0.06518459
8	0xbaef21d5	-0.0018244336
9	0x39d56a8a	0.00040705904
10	0x3d866ece	0.06564103
11	0x3d2b2b65	0.04178943
12	0x3dc8e809	0.09809882
13	0x3cc3a658	0.02388303
14	0xbc57df49	-0.013175794
15	0x3d520ab4	0.05127974
16	0x3ba658d0	0.0050765052
17	0x3bf003f5	0.0073246905
18	0x3d1764c5	0.036961336
19	0xbd0d96a6	-0.034567498
20	0xbd0458bb	-0.032311182
21	0xbcb5fff4	-0.022216775
22	0xbd82f9c4	-0.06395295
23	0xbbcf4aa5	-0.006326037
24	0x3d7c535f	0.061602946
25	0x3cf5ad9f	0.029990016
26	0xbc4801be	-0.012207447
27	0x3d02972f	0.03188246
28	0xbd651826	-0.055931233
29	0x3d82b4ef	0.063821666
30	0x3d67346f	0.05644649
31	0x3c309e9c	0.010780003
32	0xbd0dcc30	-0.034618556
33	0x3cbaaa34	0.022786237
34	0x3cb5c83c	0.022190206
35	0x3c7e19ea	0.015509108
36	0xbbdd35ac	-0.006750783
37	0x3d5ff793	0.054679465
38	0xbd08d710	-0.033408225
39	0x3c2630df	0.010143488
40	0x3d45687b	0.048195343
41	0x3ceb32fe	0.028710838
42	0xbd1939ca	-0.037408628
43	0x3d142d8a	0.036176242
44	0x3cdcc278	0.026948199
45	0x3c652e72	0.013988124
46	0x3d201f0e	0.039092116
47	0xbd765975	-0.060143907
48	0xbb40cfee	-0.002942081
49	0xbc9519e2	-0.018200818
50	0x3d763bf8	0.060115784
51	0x3c9f3ffc	0.01943969
52	0xbcbaf0a6	-0.022819828
53	0x3d0ce594	0.03439863
54	0xbc9a1ef1	-0.018813582
55	0x3b8a876e	0.0042275703
56	0xbd6d5f14	-0.057952
57	0x3cd76662	0.026293937
58	0x3d3cd590	0.046102107
59	0xbd08d272	-0.03340382
60	0xba6efca6	-0.0009116627
61	0xbc6dccf5	-0.014514198
62	0x3c504d7d	0.012713787
63	0x3c40e591	0.011773483
64	0xbccb9dbe	-0.02485549
65	0x3d086158	0.03329596
66	0xbba1d727	-0.0049389782
67	0x3d634112	0.055481978
68	0xbd25ab7d	-0.040446747
69	0x3c548fa1	0.012973697
70	0x3cf4805b	0.02984636
71	0x3d259403	0.040424358
72	0xbd7fbfb2	-0.062438674
73	0x3dc168ad	0.094437934
74	0x3d864434	0.065559775
75	0x3c38a8aa	0.011270681
76	0x3c0aa63f	0.008462488
77	0xbd722488	-0.05911687
78	0xbd6468d5	-0.055764038
79	0x3cecb7f5	0.028896311
80	0x3daac242	0.08337833
81	0xbc06303c	-0.008190211
82	0x3c920ca8	0.0178283
83	0xbd079a77	-0.033106294
84	0x3d95205a	0.07281561
85	0xbcb96975	-0.022633294
86	0x3d2a9336	0.041644298
87	0x3c72972a	0.014806548
88	0xbcb4851a	-0.022036124
89	0x3d6ae909	0.057351146
90	0x3d70d357	0.0587953
91	0x3d4d0e76	0.05006262
92	0x3bbeefd5	0.00582693
93	0x3d54d4cb	0.051960748
94	0xbc8253b9	-0.015909063
95	0xbc089c8c	-0.008338105
96	0xbc986c26	-0.018606257
97	0xbcdcc052	-0.026947174
98	0xbb60468a	-0.0034221732
99	0x3cc8fbe8	0.02453418

fc3.weight f4 [10, 100]
0	0x3c425fe1	0.01186368
1	0x3d87abd1	0.06624568
2	0x3d4c26df	0.049841758
3	0x3d89d015	0.067291416
4	0x3da8cbb8	0.08241981
5	0xbd98d410	-0.07462323
6	0xbdeb05ff	-0.11475753
7	0xbdc5a0d8	-0.09649819
8	0x3da96c13	0.08272567
9	0x3e19a821	0.15005542
10	0xbdfbf0b5	-0.123017706
11	0xbd94f71f	-0.07273697
12	0x3dffe5c9	0.12495
13	0x3dad5cc4	0.08464959
14	0xbe2e74a9	-0.1703669
15	0xbe169e47	-0.14708816
16	0x3d90d872	0.07072534
17	0xbe0e31f9	-0.1388625
18	0xbbde1004	-0.0067768116
19	0xbdbe9317	-0.09305399
20	0xbd1cea68	-0.038309485
21	0xbd97c251	-0.0741011
22	0x3dc593b3	0.09647312
23	0xbdf53982	-0.11973859
24	0xbdbe4195	-0.092898525
25	0xbe22bc2a	-0.15892091
26	0x3e0c047a	0.13673583
27	0x3ca26b65	0.0198266
28	0x3d981542	0.074259296
29	0x3e311aa8	0.17295325
30	0xbb1aac0e	-0.0023601088
31	0x3dc22f27	0.0948165
32	0x3d7e78b2	0.062126823
33	0x3d70e7a3	0.058814656
34	0xbdecde98	-0.11565894
35	0x3ddb1155	0.10696665
36	0xbe0afa1d	-0.13571973
37	0xbcbfe5ea	-0.023425061
38	0x3e07dd5f	0.1326804
39	0x3ccb808d	0.024841571
40	0xbcec3b55	-0.028836885
41	0xbd318df4	-0.043348268
42	0xbdee6671	-0.11640633
43	0xbdc8b201	-0.097995766
44	0xbda72418	-0.08161181
45	0xbe6fa0df	-0.23401211
46	0xbcea7114	-0.028618373
47	0x3e322453	0.17396669
48	0xbddef96b	-0.108874165
49	0xbd81d410	-0.06339276
50	0x3d046a3c	0.032327875
51	0x3da80e24	0.08205822
52	0xbc658caa	-0.014010588
53	0xbd2ae902	-0.04172612
54	0xbe417610	-0.18892694
55	0xbe23e40f	-0.16004966
56	0xbcd37e51	-0.025817068
57	0xbd799018	-0.060928434
58	0x3dd7e7eb	0.10542282
59	0xbe2746ac	-0.16335553
60	0x3dc5826b	0.09644016
61	0x3d386810	0.045021117
62	0x3dda6fcb	0.10665854
63	0xbd7be015	-0.061493
64	0x3c99b8cc	0.018764876
65	0x3e0b2f0b	0.13592164
66	0x3dbb9b69	0.091605015
67	0x3df7133d	0.12064216
68	0x3d9c5ae6	0.07634525
69	0x3de57eb1	0.11205805
70	0x3df44a8c	0.11928281
71	0xbd7ba8e5	-0.061440367
72	0xbc846595	-0.01616172
73	0xbe31fb69	-0.17381062
74	0xbcb1cee5	-0.0217051
75	0xbdc34447	-0.09534507
76	0x3d4a7fc8	0.049438268
77	0x3d0044e6	0.031315707
78	0xbd4d04d3	-0.05005343
79	0xbdc52e2a	-0.09627946
80	0xbe2e47d5	-0.17019589
81	0x3dc9474a	0.098280504
82	0x3de84645	0.11341528
83	0x3d24ee01	0.04026604
84	0x3c9148b4	0.017734863
85	0xbd866df5	-0.065639414
86	0x3e122440	0.14271641
87	0xbe786fa5	-0.24261339
88	0xbda2ce5e	-0.07949518
89	0xbda43ff7	-0.08020013
90	0x3c90be99	0.017669009
91	0x3d96bd7b	0.07360359
92	0xbe01c0b0	-0.1267116
93	0xbe234c81	-0.15947153
94	0x3dfb8d59	0.12282819
95	0x3d974fff	0.07388305
96	0x3d037b49	0.032099996
97	0x3d9d5f30	0.07684171
98	0xbddafbcf	-0.1069256
99	0xbe2a22c4	-0.16614825
100	0x3c112d9f	0.008860975
101	0xbdb32e63	-0.08749082
102	0xbdff43e8	-0.12464124
103	0xbcd51be4	-0.026014276
104	0x3de20d97	0.11037748
105	0x3d63cab4	0.055613235
106	0xbd8d26d9	-0.06892175
107	0x3d97aaaf	0.07405602
108	0xbddf73d1	-0.10910762
109	0xbe296c63	-0.16545253
110	0x3e3da45d	0.18519731
111	0x3e2ce610	0.16884637
112	0x3e0607ad	0.13088866
113	0x3e370bd6	0.17875609
114	0x3defd823	0.11711147
115	0x3d89e760	0.067335844
116	0x3cd67257	0.026177568
117	0xbd7f763d	-0.06236862
118	0xbe01f2a8	-0.12690222
119	0x3de1f208	0.11032492
120	0xbdb5a376	-0.08869068
121	0xbd88769e	-0.066632494
122	0xbe07f893	-0.13278417
123	0xbe14e355	-0.14539845
124	0x3e072b5f	0.13200139
125	0xbe1cdb6b	-0.15318076
126	0xbe307f18	-0.17235982
127	0x3db1bb44	0.08678296
128	0xbddbca4a	-0.10731943
129	0x3dd053c2	0.101722255
130	0x3ddfa92c	0.10920939
131	0xbe162d4e	-0.1466572
132	0x3c4e50d9	0.012592518
133	0xbd35b011	-0.044357363
134	0x3e25a975	0.16177924
135	0x3d21f735	0.039542396
136	0x3ddf36e7	0.10899144
137	0x3d0146de	0.031561725
138	0x3dd1b7f1	0.10240162
139	0xbd492e5a	-0.04911647
140	0xbe2c9539	-0.16853799
141	0xbd830611	-0.063976415
142	0xbc1427be	-0.009042678
143	0xbdbe599b	-0.09294435
144	0x3e61e96b	0.22061698
145	0x3cb2fdea	0.021849591
146	0xbddb75ac	-0.107158035
147	0xbc13de3f	-0.009025156
148	0x3de5b036	0.1121525
149	0xbdb7e47a	-0.08979125
150	0x3e628be6	0.2212368
151	0xbe043c90	-0.12913728
152	0x3e430157	0.1904348
153	0x3ce1295f	0.027485548
154	0x3c5e7fc7	0.013580269
155	0x3e22a977	0.15884958
156	0xbc084c80	-0.00831902
157	0xbdaf8a0c	-0.08571252
158	0xbd0a6ecf	-0.03379708
159	0x3df0313a	0.11728139
160	0xbe455d51	-0.19273879
161	0xbddadaa4	-0.10686234
162	0xbddb6cc7	-0.10714107
163	0xbcfb79d0	-0.030697733
164	0xbc4b9d2e	-0.012427611
165	0xbd69f0ba	-0.05711434
166	0xbe0198aa	-0.12655893
167	0xbe2edf5f	-0.17077397
168	0xbdf7d265	-0.121006764
169	0xbe0b5a32	-0.13608626
170	0x3da7cb5a	0.08193083
171	0x3c90ef9b	0.017692378
172	0x3d2ea45f	0.042637225
173	0x3e26b4ba	0.16279879
174	0x3d823686	0.06358056
175	0xbe6c09c0	-0.23050594
176	0xbd2a8d74	-0.041638806
177	0xbe01ddfe	-0.1268234
178	0x3d86830b	0.06567963
179	0xbdebf0b7	-0.11520522
180	0x3dc3cafd	0.09560201
181	0xbdc14060	-0.09436107
182	0xbe5fa531	-0.2184036
183	0xbd8b623c	-0.06805846
184	0x3e078482	0.13234141
185	0x3e2143a3	0.15748458
186	0x3d3ebb3d	0.046565283
187	0x3dce494c	0.10072574
188	0xbd2bbf99	-0.04193077
189	0x3de81747	0.11332565
190	0x3df7d1b4	0.121005446
191	0xbd745730	-0.05965346
192	0xbe46f821	-0.19430591
193	0x3d870fb2	0.065947905
194	0xbe3a2ecc	-0.18181914
195	0x3dbd3672	0.092389
196	0xbe1a475c	-0.15066284
197	0x3de99d76	0.114069864
198	0xbdac6ca1	-0.08419157
199	0xbe36ed7d	-0.17864032
200	0x3d64e7d6	0.05588516
201	0x3d1defab	0.038558643
202	0xbd1ccf70	-0.038283765
203	0xbdc21850	-0.094772935
204	0x3d0e658f	0.034764823
205	0xbc1cd40d	-0.009572041
206	0xbdec12b0	-0.11527002
207	0xbe025e0e	-0.12731192
208	0xbdfbe16d	-0.12298856
209	0xbc4b22ec	-0.012398463
210	0x3e2c8fd3	0.1685174
211	0xbe07c468	-0.13258517
212	0xbe262049	-0.16223253
213	0xbd18dd06	-0.03732016
214	0xbc8db47b	-0.017297974
215	0xbd8f6cb2	-0.07003154
216	0xbd832545	-0.06403593
217	0xb9736e15	-0.00023215295
218	0x3cbfb7be	0.023403045
219	0x3e059507	0.1304513
220	0x3dd14377	0.10217946
221	0x3e065db0	0.13121676
222	0x3df20d35	0.11818925
223	0xbc63f825	-0.013914143
224	0xbdea0576	-0.11426823
225	0x3d6287af	0.05530518
226	0x3dfa210f	0.12213337
227	0x3dd3d4ff	0.1034336
228	0x3c8cc104	0.01718188
229	0x3e01e5d2	0.12685326
230	0x3dbada46	0.091236636
231	0xbd336c10	-0.04380423
232	0xbd603bf0	-0.05474466
233	0x3d26fb7c	0.040767178
234	0x3c5f4d96	0.013629338
235	0xbc99a1ef	-0.018753974
236	0x3e08ae65	0.13347776
237	0xbdb2a8e0	-0.087236166
238	0x3dc318dc	0.09526226
239	0x3e0f7c54	0.14012271
240	0x3dad449e	0.08460353
241	0xbcb032f1	-0.021508666
242	0x3db057f8	0.08610529
243	0xbd0f4c72	-0.034985013
244	0xbce11783	-0.027477032
245	0xbdac270d	-0.08405886
246	0xbdac69fb	-0.08418652
247	0xbd3a1c06	-0.04543688
248	0x3dfddf3a	0.12396093
249	0xbb56401d	-0.0032692023
250	0xbd0a3c23	-0.033748757
251	0x3e086dba	0.13323107
252	0xbd10a949	-0.035317693
253	0x3d0668dc	0.032814845
254	0xbe40364f	-0.18770717
255	0x3e181f53	0.14855699

fc3.bias f4 [10]
0	0xbcf3b8f2	-0.029751275
1	0x3e82de99	0.25560454
2	0xbd3163be	-0.043308012
3	0x3bf72887	0.007542673
4	0xbe0d927f	-0.13825415
5	0xbcda5a17	-0.026654286
6	0x3c3c98d0	0.011511043
7	0xbcbec50c	-0.023287319
8	0x3e0d28d6	0.13785109
9	0x3c42f1be	0.011898456
